visualization/some_thetas.npy (npy, 3584 bytes, 1 tensors)

array f4 [12, 72]
0.0 0.0 0.0 0.0 0.0 0.0 0.0 0.0
0.0 0.0 0.0 0.0 0.0 -0.024503335 -0.008657124 0.0
-0.015436116 0.021324832 0.032871157 0.025250642 0.017643716 0.0 0.0 -0.0
0.0 0.0 0.0 -0.041507773 0.0005285651 -0.022849828 0.0 0.0
0.0 0.0 0.0 0.0 -0.044714343 -0.0019178228 -0.058859773 -0.08115439
0.052527897 -0.16531804 -0.10139212 0.016047543 0.17857882 0.026005106 0.018749528 0.027829843
0.14861186 -0.15672915 -0.6989288 0.20513296 0.06437668 0.6239191 -0.08353457 -0.064230874
0.09265482 -0.20767595 0.07647581 -0.1550914 0.0 0.0 0.0 0.0
0.0 0.0 0.0 0.0 0.0 0.0 0.0 0.0
0.045648485 -0.00037734228 0.016529273 -0.065164685 -0.061648544 0.051360708 -0.03678397 -0.033342086
-0.029564897 0.16729887 0.04166209 -0.0016997023 -0.072184116 -0.23083657 -0.032917593 -0.0694016
0.15775968 -0.024924414 -0.54640156 -0.03107578 -0.0801345 -0.010423581 0.40360582 -0.05224931
-0.080256864 -0.39055908 0.08971218 0.069720805 0.064953126 0.054304212 -0.12347241 -0.0018699022
0.2783248 0.031967487 0.18178043 -0.22990488 -0.10236661 -0.15770936 -0.03779785 -0.42461812
-0.008731913 0.014238487 -0.4280941 0.15364258 -0.045624454 -0.17199343 0.0026442509 0.041791927
-0.23397626 -0.2527637 0.24494478 -0.2861463 0.008242878 -0.29429427 -0.50907993 -1.001881
0.6736912 -0.5451261 1.0408442 -0.7294221 0.10594031 -0.38232526 0.787069 0.19215629
0.3798384 -0.13013129 0.23594241 -0.33484966 -0.2013619 -0.4346507 0.21693294 0.39957082
0.0039411485 -0.00011890862 0.060323738 0.23147827 0.017616183 -0.034222957 0.31191692 -0.05460427
-0.0702895 0.1617524 -0.0018000255 -0.065935016 -0.22697568 -0.3293989 -0.042517595 -0.31006762
0.27914062 0.08602497 -0.33837444 -0.0508143 0.23933126 0.016449384 0.27487448 -0.10847937
0.06609314 -0.44550237 -0.011521839 0.2466961 -0.08146544 0.035267293 0.08370629 -0.2043466
0.34243542 -0.14244853 0.10744907 -0.16065323 0.11434505 0.3613026 0.013704469 -0.12903674
-0.19126287 0.320898 -0.16424914 -0.14549655 0.15676098 0.011193574 -0.26225346 0.2590418
-0.7365316 -0.600696 0.1300552 -0.072639875 0.08714422 0.91769254 -0.07327977 -1.1769338
0.49392435 -0.07114394 1.5292175 -1.3978446 0.17571983 -0.45050597 0.35776874 0.2201565
0.17972094 -1.2542224 -0.11601351 -0.043052323 -0.22507064 0.24834394 0.118849374 0.4075208
-0.07586471 0.00073556433 0.019381564 -0.17591238 -0.04662888 0.06401338 -0.0392527 -0.24570587
-0.13529857 0.102862336 0.09742135 -0.022844775 -0.04131687 -0.45181534 -0.03422155 0.337196
-0.20834455 0.09972622 -0.095056556 0.16903211 -0.11662193 0.16018517 0.18297969 -0.28191888
-0.28899637 -0.62795275 0.091909595 0.19383012 0.098934904 -0.0736821 -0.21965413 -0.1101898
0.34364992 -0.2708117 0.28541344 -0.3100277 -0.20031068 -0.44873452 0.05625156 -0.21859482
00000000: 0000 0000 0000 0000 0000 0000 0000 0000
00000010: 0000 0000 0000 0000 0000 0000 0000 0000
00000020: 0000 0000 0000 0000 0000 0000 0000 0000
00000030: 0000 0000 38bb c8bc 9cd6 0dbc 0000 0000
00000040: c3e7 7cbc 6ab1 ae3c e8a3 063d 6fda ce3c
00000050: 8e89 903c 0000 0000 0000 0000 0000 0080
00000060: 0000 0000 0000 0000 0000 0000 0e04 2abd
00000070: 678f 0a3a 902f bbbc 0000 0000 0000 0000
00000080: 0000 0000 0000 0000 0000 0000 0000 0000
00000090: 6326 37bd 745f fbba f216 71bd 4634 a6bd
000000a0: 7e27 573d 2249 29be aca6 cfbd 2376 833c
000000b0: 5edd 363e a908 d53c 9c98 993c 69fb e33c
000000c0: b52d 183e 9b7d 20be ffec 32bf 600e 523e
000000d0: ecd7 833d 2ab9 1f3f 2c14 abbd 7a8b 83bd
000000e0: cfc1 bd3d 01a9 54be 599f 9c3d 48d0 1ebe
000000f0: 0000 0000 0000 0000 0000 0000 0000 0000
00000100: 0000 0000 0000 0000 0000 0000 0000 0000
00000110: 0000 0000 0000 0000 0000 0000 0000 0000
00000120: e8f9 3a3d 06d6 c5b9 6668 873c 1075 85bd
00000130: 2f83 7cbd 9b5f 523d caaa 16bd b691 08bd
00000140: 1532 f2bc 6550 2b3e dea5 2a3d 8cc8 deba
00000150: 44d5 93bd 6c60 6cbe 99d4 06bd 6d22 8ebd
00000160: c18b 213e 492e ccbc f9e0 0bbf a292 febc
00000170: 8f1d a4bd abc7 2abc 6ca5 ce3e 5f03 56bd
00000180: b65d a4bd 5cf7 c7be 05bb b73d c8c9 8e3d
00000190: 2506 853d 186e 5e3d 1adf fcbd 8217 f5ba
000001a0: 9780 8e3e 57f0 023d a624 3a3e 2f6c 6bbe
000001b0: 96a5 d1bd 907e 21be ebd1 1abd 8c67 d9be
000001c0: 4c10 0fbc 8b48 693c 262f dbbe 7b54 1d3e
000001d0: b5e0 3abd 0c1f 30be 2b4b 2d3b 032e 2b3d
000001e0: 7997 6fbe 3e6a 81be ced2 7a3e c581 92be
000001f0: 230d 073c bdad 96be 1053 02bf a33d 80bf
00000200: 0777 2c3f 628d 0bbf 623a 853f 68bb 3abf
00000210: 3cf7 d83d 23c0 c3be 5b7d 493f 9ec4 443e
00000220: 2e7a c23e 2341 05be e39a 713e 6a71 abbe
00000230: d031 4ebe 898a debe ab23 5e3e 8c94 cc3e
00000240: c024 813b 945e f9b8 0616 773d a408 6d3e
00000250: d04f 903c 5f2d 0cbd 93b3 9f3e baa8 5fbd
00000260: f1f3 8fbd 6ca2 253e d5ee ebba f008 87bd
00000270: 506c 68be f9a6 a8be ee26 2ebd 2fc1 9ebe
00000280: 85eb 8e3e dc2d b03d 6a3f adbe a822 50bd
00000290: 4113 753e dcc0 863c 59bc 8c3e 6f2a debd
000002a0: d75b 873d e318 e4be 18c6 3cbc e79d 7c3e
000002b0: 5ad7 a6bd 7074 103d 346e ab3d 3c40 51be
000002c0: b253 af3e 07de 11be 420e dc3d 4882 24be
000002d0: bd2d ea3d a8fc b83e b688 603c 3522 04be
000002e0: 6ada 43be be4c a43e ed30 28be 0cfd 14be
000002f0: f385 203e 4165 373c 1646 86be 20a1 843e
00000300: 568d 3cbf 37c7 19bf 312d 053e 37c4 94bd
00000310: ab78 b23d e6ed 6a3f b413 96bd c4a5 96bf
00000320: a7e3 fc3e eab3 91bd 66bd c33f 92ec b2bf
00000330: e6ef 333e b8a8 e6be 772d b73e b570 613e
00000340: c408 383e 5c8a a0bf 7e98 edbd a257 30bd
00000350: eb78 66be e04d 7e3e 4d67 f33d 91a6 d03e
00000360: f55e 9bbd e3d2 403a 16c6 9e3c 6022 34be
00000370: edfd 3ebd 7219 833d 70c7 20bd 529a 7bbe
00000380: b58b 0abe 7da9 d23d d884 c73d f724 bbbc
00000390: e13b 29bd 5754 e7be e52b 0cbd f4a4 ac3e
000003a0: 4658 55be 433d cc3d 03ad c2bd c116 2d3e
000003b0: 7ad7 eebd 9507 243e 075f 3b3e ac57 90be
000003c0: 55f7 93be 83c1 20bf 193b bc3d 677b 463e
000003d0: 629e ca3d a4e6 96bd 03ed 60be 31ab e1bd
000003e0: e2f2 af3e d5a7 8abe b621 923e f3bb 9ebe
000003f0: 3e1e 4dbe 88c0 e5be 0968 663d 52d7 5fbe
